…
ttps://github.com/huggingface/pytorch-image-models/releases/download/v0.1-weights/tf_efficientnet_b0-0af12548.pth\" to /root/.cache/torch/hub/checkpoints/tf_efficientnet_b0-0af12548.pth\n100%|| 20.4M/20.4M [00:00<00:00, 107MB/s] \nDownloading: \"https://download.pytorch.org/models/resnet34-333f7ec4.pth\" to /root/.cache/torch/hub/checkpoints/resnet34-333f7ec4.pth\n100%|| 83.3M/83.3M [00:00<00:00, 294MB/s]\n","output_type":"stream"},{"execution_count":38,"output_type":"execute_result","data":{"text/plain":"SegmentationModel(\n  (arc): Unet(\n    (encoder): EfficientNetEncoder(\n      (conv_stem): Conv2d(4, 32, kernel_size=(3, 3), stride=(2, 2), padding=(1, 1), bias=False)\n      (bn1): BatchNormAct2d(\n        32, eps=1e-05, momentum=0.1, affine=True, track_running_stats=True\n        (drop): Identity()\n        (act): Swish()\n      )\n      (blocks): Sequential(\n        (0): Sequential(\n          (0): DepthwiseSeparableConv(\n            (conv_dw): Conv2d(32, 32, kernel_size=(3, 3), stride=(1, 1), padding=(1, 1), groups=32, bias=False)\n            (bn1): BatchNormAct2d(\n              32, eps=1e-05, momentum=0.1, affine=True, track_running_stats=True\n              (drop): Identity()\n              (act): Swish()\n            )\n            (se): SqueezeExcite(\n              (conv_reduce): Conv2d(32, 8, kernel_size=(1, 1), stride=(1, 1))\n              (act1): Swish()\n              (conv_expand): Conv2d(8, 32, kernel_size=(1, 1), stride=(1, 1))\n              (gate): Sigmoid()\n            )\n            (conv_pw): Conv2d(32, 16, kernel_size=(1, 1), stride=(1, 1), bias=False)\n            (bn2): BatchNormAct2d(\n              16, eps=1e-05, momentum=0.1, affine=True, track_running_stats=True\n              (drop): Identity()\n              (act): Identity()\n            )\n            (drop_path): Identity()\n          )\n        )\n        (1): Sequential(\n          (0): InvertedResidual(\n            (conv_pw): Conv2d(16, 96, kernel_size=(1, 1), stride=(1, 1), bias=False)\n            (bn1): BatchNormAct2d(\n              96, eps=1e-05, momentum=0.1, affine=True, track_running_stats=True\n              (drop): Identity()\n              (act): Swish()\n            )\n            (conv_dw): Conv2d(96, 96, kernel_size=(3, 3), stride=(2, 2), padding=(1, 1), groups=96, bias=False)\n            (bn2): BatchNormAct2d(\n              96, eps=1e-05, momentum=0.1, affine=True, track_running_stats=True\n              (drop): Identity()\n              (act): Swish()\n            )\n            (se): SqueezeExcite(\n              (conv_reduce): Conv2d(96, 4, kernel_size=(1, 1), stride=(1, 1))\n              (act1): Swish()\n              (conv_expand): Conv2d(4, 96, kernel_size=(1, 1), stride=(1, 1))\n              (gate): Sigmoid()\n            )\n            (conv_pwl): Conv2d(96, 24, kernel_size=(1, 1), stride=(1, 1), bias=False)\n            (bn3): BatchNormAct2d(\n              24, eps=1e-05, momentum=0.1, affine=True, track_running_stats=True\n              (drop): Identity()\n              (act): Identity()\n            )\n            (drop_path): DropPath(drop_prob=0.013)\n          )\n          (1): InvertedResidual(\n            (conv_pw): Conv2d(24, 144, kernel_size=(1, 1), stride=(1, 1), bias=False)\n            (bn1): BatchNormAct2d(\n              144, eps=1e-05, momentum=0.1, affine=True, track_running_stats=True\n              (drop): Identity()\n              (act): Swish()\n            )\n            (conv_dw): Conv2d(144, 144, kernel_size=(3, 3), stride=(1, 1), padding=(1, 1), groups=144, bias=False)\n            (bn2): BatchNormAct2d(\n              144, eps=1e-05, momentum=0.1, affine=True, track_running_stats=True\n              (drop): Identity()\n              (act): Swish()\n            )\n            (se): SqueezeExcite(\n              (conv_reduce): Conv2d(144, 6, kernel_size=(1, 1), stride=(1, 1))\n              (act1): Swish()\n              (conv_expand): Conv2d(6, 144, kernel_size=(1, 1), stride=(1, 1))\n              (gate): Sigmoid()\n            )\n            (conv_pwl): Conv2d(144, 24, kernel_size=(1, 1), stride=(1, 1), bias=False)\n            (bn3): BatchNormAct2d(\n              24, eps=1e-05, momentum=0.1, affine=True, track_running_stats=True\n              (drop): Identity()\n              (act): Identity()\n            )\n            (drop_path): DropPath(drop_prob=0.025)\n          )\n        )\n        (2): Sequential(\n          (0): InvertedResidual(\n            (conv_pw): Conv2d(24, 144, kernel_size=(1, 1), stride=(1, 1), bias=False)\n            (bn1): BatchNormAct2d(\n              144, eps=1e-05, momentum=0.1, affine=True, track_running_stats=True\n              (drop): Identity()\n              (act): Swish()\n            )\n            (conv_dw): Conv2d(144, 144, kernel_size=(5, 5), stride=(2, 2), padding=(2, 2), groups=144, bias=False)\n            (bn2): BatchNormAct2d(\n              144, eps=1e-05, momentum=0.1, affine=True, track_running_stats=True\n              (drop): Identity()\n              (act): Swish()\n            )\n            (se): SqueezeExcite(\n              (conv_reduce): Conv2d(144, 6, kernel_size=(1, 1), stride=(1, 1))\n              (act1): Swish()\n              (conv_expand): Conv2d(6, 144, kernel_size=(1, 1), stride=(1, 1))\n              (gate): Sigmoid()\n            )\n            (conv_pwl): Conv2d(144, 40, kernel_size=(1, 1), stride=(1, 1), bias=False)\n            (bn3): BatchNormAct2d(\n              40, eps=1e-05, momentum=0.1, affine=True, track_running_stats=True\n              (drop): Identity()\n              (act): Identity()\n            )\n            (drop_path): DropPath(drop_prob=0.038)\n          )\n          (1): InvertedResidual(\n            (conv_pw): Conv2d(40, 240, kernel_size=(1, 1), stride=(1, 1), bias=False)\n            (bn1): BatchNormAct2d(\n              240, eps=1e-05, momentum=0.1, affine=True, track_running_stats=True\n              (drop): Identity()\n              (act): Swish()\n            )\n            (conv_dw): Conv2d(240, 240, kernel_size=(5, 5), stride=(1, 1), padding=(2, 2), groups=240, bias=False)\n            (bn2): BatchNormAct2d(\n              240, eps=1e-05, momentum=0.1, affine=True, track_running_stats=True\n              (drop): Identity()\n              (act): Swish()\n            )\n            (se): SqueezeExcite(\n              (conv_reduce): Conv2d(240, 10, kernel_size=(1, 1), stride=(1, 1))\n              (act1): Swish()\n              (conv_expand): Conv2d(10, 240, kernel_size=(1, 1), stride=(1, 1))\n              (gate): Sigmoid()\n            )\n            (conv_pwl): Conv2d(240, 40, kernel_size=(1, 1), stride=(1, 1), bias=False)\n            (bn3): BatchNormAct2d(\n              40, eps=1e-05, momentum=0.1, affine=True, track_running_stats=True\n              (drop): Identity()\n              (act): Identity()\n            )\n            (drop_path): DropPath(drop_prob=0.050)\n          )\n        )\n        (3): Sequential(\n          (0): InvertedResidual(\n            (conv_pw): Conv2d(40, 240, kernel_size=(1, 1), stride=(1, 1), bias=False)\n            (bn1): BatchNormAct2d(\n              240, eps=1e-05, momentum=0.1, affine=True, track_running_stats=True\n              (drop): Identity()\n              (act): Swish()\n            )\n            (conv_dw): Conv2d(240, 240, kernel_size=(3, 3), stride=(2, 2), padding=(1, 1), groups=240, bias=False)\n            (bn2): BatchNormAct2d(\n              240, eps=1e-05, momentum=0.1, affine=True, track_running_stats=True\n              (drop): Identity()\n              (act): Swish()\n            )\n            (se): SqueezeExcite(\n              (conv_reduce): Conv2d(240, 10, kernel_size=(1, 1), stride=(1, 1))\n              (act1): Swish()\n              (conv_expand): Conv2d(10, 240, kernel_size=(1, 1), stride=(1, 1))\n              (gate): Sigmoid()\n            )\n            (conv_pwl): Conv2d(240, 80, kernel_size=(1, 1), stride=(1, 1), bias=False)\n            (bn3): BatchNormAct2d(\n              80, eps=1e-05, momentum=0.1, affine=True, track_running_stats=True\n              (drop): Identity()\n              (act): Identity()\n            )\n            (drop_path): DropPath(drop_prob=0.062)\n          )\n          (1): InvertedResidual(\n            (conv_pw): Conv2d(80, 480, kernel_size=(1, 1), stride=(1, 1), bias=False)\n            (bn1): BatchNormAct2d(\n              480, eps=1e-05, momentum=0.1, affine=True, track_running_stats=True\n              (drop): Identity()\n              (act): Swish()\n            )\n            (conv_dw): Conv2d(480, 480, kernel_size=(3, 3), stride=(1, 1), padding=(1, 1), groups=480, bias=False)\n            (bn2): BatchNormAct2d(\n              480, eps=1e-05, momentum=0.1, affine=True, track_running_stats=True\n              (drop): Identity()\n              (act): Swish()\n            )\n            (se): SqueezeExcite(\n              (conv_reduce): Conv2d(480, 20, kernel_size=(1, 1), stride=(1, 1))\n              (act1): Swish()\n              (conv_expand): Conv2d(20, 480, kernel_size=(1, 1), stride=(1, 1))\n              (gate): Sigmoid()\n            )\n            (conv_pwl): Conv2d(480, 80, kernel_size=(1, 1), stride=(1, 1), bias=False)\n            (bn3): BatchNormAct2d(\n              80, eps=1e-05, momentum=0.1, affine=True, track_running_stats=True\n              (drop): Identity()\n              (act): Identity()\n            )\n            (drop_path): DropPath(drop_prob=0.075)\n          )\n          (2): InvertedResidual(\n            (conv_pw): Conv2d(80, 480, kernel_size=(1, 1), stride=(1, 1), bias=False)\n            (bn1): BatchNormAct2d(\n              480, eps=1e-05, momentum=0.1, affine=True, track_running_stats=True\n              (drop): Identity()\n              (act): Swish()\n            )\n            (conv_dw): Conv2d(480, 480, kernel_size=(3, 3), stride=(1, 1), padding=(1, 1), groups=480, bias=False)\n            (bn2): BatchNormAct2d(\n              480, eps=1e-05, momentum=0.1, affine=True, track_running_stats=True\n              (drop): Identity()\n              (act): Swish()\n            )\n            (se): SqueezeExcite(\n              (conv_reduce): Conv2d(480, 20, kernel_size=(1, 1), stride=(1, 1))\n              (act1): Swish()\n              (conv_expand): Conv2d(20, 480, kernel_size=(1, 1), stride=(1, 1))\n              (gate): Sigmoid()\n            )\n            (conv_pwl): Conv2d(480, 80, kernel_size=(1, 1), stride=(1, 1), bias=False)\n            (bn3): BatchNormAct2d(\n              80, eps=1e-05, momentum=0.1, affine=True, track_running_stats=True\n              (drop): Identity()\n              (act): Identity()\n            )\n            (drop_path): DropPath(drop_prob=0.088)\n          )\n        )\n        (4): Sequential(\n          (0): InvertedResidual(\n            (conv_pw): Conv2d(80, 480, kernel_size=(1, 1), stride=(1, 1), bias=False)\n            (bn1): BatchNormAct2d(\n              480, eps=1e-05, momentum=0.1, affine=True, track_running_stats=True\n              (drop): Identity()\n              (act): Swish()\n            )\n            (conv_dw): Conv2d(480, 480, kernel_size=(5, 5), stride=(1, 1), padding=(2, 2), groups=480, bias=False)\n            (bn2): BatchNormAct2d(\n              480, eps=1e-05, momentum=0.1, affine=True, track_running_stats=True\n              (drop): Identity()\n              (act): Swish()\n            )\n            (se): SqueezeExcite(\n              (conv_reduce): Conv2d(480, 20, kernel_size=(1, 1), stride=(1, 1))\n              (act1): Swish()\n              (conv_expand): Conv2d(20, 480, kernel_size=(1, 1), stride=(1, 1))\n              (gate): Sigmoid()\n            )\n            (conv_pwl): Conv2d(480, 112, kernel_size=(1, 1), stride=(1, 1), bias=False)\n            (bn3): BatchNormAct2d(\n              112, eps=1e-05, momentum=0.1, affine=True, track_running_stats=True\n              (drop): Identity()\n              (act): Identity()\n            )\n            (drop_path): DropPath(drop_prob=0.100)\n          )\n          (1): InvertedResidual(\n            (conv_pw): Conv2d(112, 672, kernel_size=(1, 1), stride=(1, 1), bias=False)\n            (bn1): BatchNormAct2d(\n              672, eps=1e-05, momentum=0.1, affine=True, track_running_stats=True\n              (drop): Identity()\n              (act): Swish()\n            )\n            (conv_dw): Conv2d(672, 672, kernel_size=(5, 5), stride=(1, 1), padding=(2, 2), groups=672, bias=False)\n            (bn2): BatchNormAct2d(\n              672, eps=1e-05, momentum=0.1, affine=True, track_running_stats=True\n              (drop): Identity()\n              (act): Swish()\n            )\n            (se): SqueezeExcite(\n              (conv_reduce): Conv2d(672, 28, kernel_size=(1, 1), stride=(1, 1))\n              (act1): Swish()\n              (conv_expand): Conv2d(28, 672, kernel_size=(1, 1), stride=(1, 1))\n              (gate): Sigmoid()\n            )\n            (conv_pwl): Conv2d(672, 112, kernel_size=(1, 1), stride=(1, 1), bias=False)\n            (bn3): BatchNormAct2d(\n              112, eps=1e-05, momentum=0.1, affine=True, track_running_stats=True\n              (drop): Identity()\n              (act): Identity()\n            )\n            (drop_path): DropPath(drop_prob=0.113)\n          )\n          (2): InvertedResidual(\n            (conv_pw): Conv2d(112, 672, kernel_size=(1, 1), stride=(1, 1), bias=False)\n            (bn1): BatchNormAct2d(\n              672, eps=1e-05, momentum=0.1, affine=True, track_running_stats=True\n              (drop): Identity()\n              (act): Swish()\n            )\n            (conv_dw): Conv2d(672, 672, kernel_size=(5, 5), stride=(1, 1), padding=(2, 2), groups=672, bias=False)\n            (bn2): BatchNormAct2d(\n              672, eps=1e-05, momentum=0.1, affine=True, track_running_stats=True\n              (drop): Identity()\n              (act): Swish()\n            )\n            (se): SqueezeExcite(\n              (conv_reduce): Conv2d(672, 28, kernel_size=(1, 1), stride=(1, 1))\n              (act1): Swish()\n              (conv_expand): Conv2d(28, 672, kernel_size=(1, 1), stride=(1, 1))\n              (gate): Sigmoid()\n            )\n            (conv_pwl): Conv2d(672, 112, kernel_size=(1, 1), stride=(1, 1), bias=False)\n            (bn3): BatchNormAct2d(\n              112, eps=1e-05, momentum=0.1, affine=True, track_running_stats=True\n              (drop): Identity()\n              (act): Identity()\n            )\n            (drop_path): DropPath(drop_prob=0.125)\n          )\n        )\n        (5): Sequential(\n          (0): InvertedResidual(\n            (conv_pw): Conv2d(112, 672, kernel_size=(1, 1), stride=(1, 1), bias=False)\n            (bn1): BatchNormAct2d(\n              672, eps=1e-05, momentum=0.1, affine=True, track_running_stats=True\n              (drop): Identity()\n              (act): Swish()\n            )\n            (conv_dw): Conv2d(672, 672, kernel_size=(5, 5), stride=(2, 2), padding=(2, 2), groups=672, bias=False)\n            (bn2): BatchNormAct2d(\n              672, eps=1e-05, momentum=0.1, affine=True, track_running_stats=True\n              (drop): Identity()\n              (act): Swish()\n            )\n            (se): SqueezeExcite(\n              (conv_reduce): Conv2d(672, 28, kernel_size=(1, 1), stride=(1, 1))\n              (act1): Swish()\n              (conv_expand): Conv2d(28, 672, kernel_size=(1, 1), stride=(1, 1))\n              (gate): Sigmoid()\n            )\n            (conv_pwl): Conv2d(672, 192, kernel_size=(1, 1), stride=(1, 1), bias=False)\n            (bn3): BatchNormAct2d(\n              192, eps=1e-05, momentum=0.1, affine=True, track_running_stats=True\n              (drop): Identity()\n              (act): Identity()\n            )\n            (drop_path): DropPath(drop_prob=0.138)\n          )\n          (1): InvertedResidual(\n            (conv_pw): Conv2d(192, 1152, kernel_size=(1, 1), stride=(1, 1), bias=False)\n            (bn1): BatchNormAct2d(\n              1152, eps=1e-05, momentum=0.1, affine=True, track_running_stats=True\n              (drop): Identity()\n              (act): Swish()\n            )\n            (conv_dw): Conv2d(1152, 1152, kernel_size=(5, 5), stride=(1, 1), padding=(2, 2), groups=1152, bias=False)\n            (bn2): BatchNormAct2d(\n              1152, eps=1e-05, momentum=0.1, affine=True, track_running_stats=True\n              (drop): Identity()\n              (act): Swish()\n            )\n            (se): SqueezeExcite(\n              (conv_reduce): Conv2d(1152, 48, kernel_size=(1, 1), stride=(1, 1))\n              (act1): Swish()\n              (conv_expand): Conv2d(48, 1152, kernel_size=(1, 1), stride=(1, 1))\n              (gate): Sigmoid()\n            )\n            (conv_pwl): Conv2d(1152, 192, kernel_size=(1, 1), stride=(1, 1), bias=False)\n            (bn3): BatchNormAct2d(\n              192, eps=1e-05, momentum=0.1, affine=True, track_running_stats=True\n              (drop): Identity()\n              (act): Identity()\n            )\n            (drop_path): DropPath(drop_prob=0.150)\n          )\n          (2): InvertedResidual(\n            (conv_pw): Conv2d(192, 1152, kernel_size=(1, 1), stride=(1, 1), bias=False)\n            (bn1): BatchNormAct2d(\n              1152, eps=1e-05, momentum=0.1, affine=True, track_running_stats=True\n              (drop): Identity()\n              (act): Swish()\n            )\n            (conv_dw): Conv2d(1152, 1152, kernel_size=(5, 5), stride=(1, 1), padding=(2, 2), groups=1152, bias=False)\n            (bn2): BatchNormAct2d(\n              1152, eps=1e-05, momentum=0.1, affine=True, track_running_stats=True\n              (drop): Identity()\n              (act): Swish()\n            )\n            (se): SqueezeExcite(\n              (conv_reduce): Conv2d(1152, 48, kernel_size=(1, 1), stride=(1, 1))\n              (act1): Swish()\n              (conv_expand): Conv2d(48, 1152, kernel_size=(1, 1), stride=(1, 1))\n              (gate): Sigmoid()\n            )\n            (conv_pwl): Conv2d(1152, 192, kernel_size=(1, 1), stride=(1, 1), bias=False)\n            (bn3): BatchNormAct2d(\n              192, eps=1e-05, momentum=0.1, affine=True, track_running_stats=True\n              (drop): Identity()\n              (act): Identity()\n            )\n            (drop_path): DropPath(drop_prob=0.163)\n          )\n          (3): InvertedResidual(\n            (conv_pw): Conv2d(192, 1152, kernel_size=(1, 1), stride=(1, 1), bias=False)\n            (bn1): BatchNormAct2d(\n              1152, eps=1e-05, momentum=0.1, affine=True, track_running_stats=True\n              (drop): Identity()\n              (act): Swish()\n            )\n            (conv_dw): Conv2d(1152, 1152, kernel_size=(5, 5), stride=(1, 1), padding=(2, 2), groups=1152, bias=False)\n            (bn2): BatchNormAct2d(\n              1152, eps=1e-05, momentum=0.1, affine=True, track_running_stats=True\n              (drop): Identity()\n              (act): Swish()\n            )\n            (se): SqueezeExcite(\n              (conv_reduce): Conv2d(1152, 48, kernel_size=(1, 1), stride=(1, 1))\n              (act1): Swish()\n              (conv_expand): Conv2d(48, 1152, kernel_size=(1, 1), stride=(1, 1))\n              (gate): Sigmoid()\n            )\n            (conv_pwl): Conv2d(1152, 192, kernel_size=(1, 1), stride=(1, 1), bias=False)\n            (bn3): BatchNormAct2d(\n              192, eps=1e-05, momentum=0.1, affine=True, track_running_stats=True\n              (drop): Identity()\n              (act): Identity()\n            )\n            (drop_path): DropPath(drop_prob=0.175)\n          )\n        )\n        (6): Sequential(\n          (0): InvertedResidual(\n            (conv_pw): Conv2d(192, 1152, kernel_size=(1, 1), stride=(1, 1), bias=False)\n            (bn1): BatchNormAct2d(\n              1152, eps=1e-05, momentum=0.1, affine=True, track_running_stats=True\n              (drop): Identity()\n              (act): Swish()\n            )\n            (conv_dw): Conv2d(1152, 1152, kernel_size=(3, 3), stride=(1, 1), padding=(1, 1), groups=1152, bias=False)\n            (bn2): BatchNormAct2d(\n              1152, eps=1e-05, momentum=0.1, affine=True, track_running_stats=True\n              (drop): Identity()\n              (act): Swish()\n            )\n            (se): SqueezeExcite(\n              (conv_reduce): Conv2d(1152, 48, kernel_size=(1, 1), stride=(1, 1))\n              (act1): Swish()\n              (conv_expand): Conv2d(48, 1152, kernel_size=(1, 1), stride=(1, 1))\n              (gate): Sigmoid()\n            )\n            (conv_pwl): Conv2d(1152, 320, kernel_size=(1, 1), stride=(1, 1), bias=False)\n            (bn3): BatchNormAct2d(\n              320, eps=1e-05, momentum=0.1, affine=True, track_running_stats=True\n              (drop): Identity()\n              (act): Identity()\n            )\n            (drop_path): DropPath(drop_prob=0.188)\n          )\n        )\n      )\n      (conv_head): Conv2d(320, 1280, kernel_size=(1, 1), stride=(1, 1), bias=False)\n      (bn2): BatchNormAct2d(\n        1280, eps=1e-05, momentum=0.1, affine=True, track_running_stats=True\n        (drop): Identity()\n        (act): Swish()\n      )\n      (global_pool): SelectAdaptivePool2d (pool_type=avg, flatten=Flatten(start_dim=1, end_dim=-1))\n    )\n    (decoder): UnetDecoder(\n      (center): Identity()\n      (blocks): ModuleList(\n        (0): DecoderBlock(\n          (conv1): Conv2dReLU(\n            (0): Conv2d(432, 256, kernel_size=(3, 3), stride=(1, 1), padding=(1, 1), bias=False)\n            (1): BatchNorm2d(256, eps=1e-05, momentum=0.1, affine=True, track_running_stats=True)\n            (2): ReLU(inplace=True)\n          )\n          (attention1): Attention(\n            (attention): Identity()\n          )\n          (conv2): Conv2dReLU(\n            (0): Conv2d(256, 256, kernel_size=(3, 3), stride=(1, 1), padding=(1, 1), bias=False)\n            (1): BatchNorm2d(256, eps=1e-05, momentum=0.1, affine=True, track_running_stats=True)\n            (2): ReLU(inplace=True)\n          )\n          (attention2): Attention(\n            (attention): Identity()\n          )\n        )\n        (1): DecoderBlock(\n          (conv1): Conv2dReLU(\n            (0): Conv2d(296, 128, kernel_size=(3, 3), stride=(1, 1), padding=(1, 1), bias=False)\n            (1): BatchNorm2d(128, eps=1e-05, momentum=0.1, affine=True, track_running_stats=True)\n            (2): ReLU(inplace=True)\n          )\n          (attention1): Attention(\n            (attention): Identity()\n          )\n          (conv2): Conv2dReLU(\n            (0): Conv2d(128, 128, kernel_size=(3, 3), stride=(1, 1), padding=(1, 1), bias=False)\n            (1): BatchNorm2d(128, eps=1e-05, momentum=0.1, affine=True, track_running_stats=True)\n            (2): ReLU(inplace=True)\n          )\n          (attention2): Attention(\n            (attention): Identity()\n          )\n        )\n        (2): DecoderBlock(\n          (conv1): Conv2dReLU(\n            (0): Conv2d(152, 64, kernel_size=(3, 3), stride=(1, 1), padding=(1, 1), bias=False)\n            (1): BatchNorm2d(64, eps=1e-05, momentum=0.1, affine=True, track_running_stats=True)\n            (2): ReLU(inplace=True)\n          )\n          (attention1): Attention(\n            (attention): Identity()\n          )\n          (conv2): Conv2dReLU(\n            (0): Conv2d(64, 64, kernel_size=(3, 3), stride=(1, 1), padding=(1, 1), bias=False)\n            (1): BatchNorm2d(64, eps=1e-05, momentum=0.1, affine=True, track_running_stats=True)\n            (2): ReLU(inplace=True)\n          )\n          (attention2): Attention(\n            (attention): Identity()\n          )\n        )\n        (3): DecoderBlock(\n          (conv1): Conv2dReLU(\n            (0): Conv2d(96, 32, kernel_size=(3, 3), stride=(1, 1), padding=(1, 1), bias=False)\n            (1): BatchNorm2d(32, eps=1e-05, momentum=0.1, affine=True, track_running_stats=True)\n            (2): ReLU(inplace=True)\n          )\n          (attention1): Attention(\n            (attention): Identity()\n          )\n          (conv2): Conv2dReLU(\n            (0): Conv2d(32, 32, kernel_size=(3, 3), stride=(1, 1), padding=(1, 1), bias=False)\n            (1): BatchNorm2d(32, eps=1e-05, momentum=0.1, affine=True, track_running_stats=True)\n            (2): ReLU(inplace=True)\n          )\n          (attention2): Attention(\n            (attention): Identity()\n          )\n        )\n        (4): DecoderBlock(\n          (conv1): Conv2dReLU(\n            (0): Conv2d(32, 16, kernel_size=(3, 3), stride=(1, 1), padding=(1, 1), bias=False)\n            (1): BatchNorm2d(16, eps=1e-05, momentum=0.1, affine=True, track_running_stats=True)\n            (2): ReLU(inplace=True)\n          )\n          (attention1): Attention(\n            (attention): Identity()\n          )\n          (conv2): Conv2dReLU(\n            (0): Conv2d(16, 16, kernel_size=(3, 3), stride=(1, 1), padding=(1, 1), bias=False)\n            (1): BatchNorm2d(16, eps=1e-05, momentum=0.1, affine=True, track_running_stats=True)\n            (2): ReLU(inplace=True)\n          )\n          (attention2): Attention(\n            (attention): Identity()\n          )\n        )\n      )\n    )\n    (segmentation_head): SegmentationHead(\n      (0): Conv2d(16, 4, kernel_size=(3, 3), stride=(1, 1), padding=(1, 1))\n      (1): Identity()\n      (2): Activation(\n        (activation): Identity()\n      )\n    )\n  )\n  (fpn): Linknet(\n    (encoder): ResNetEncoder(\n      (conv1): Conv2d(4, 64, kernel_size=(7, 7), stride=(2, 2), padding=(3, 3), bias=False)\n      (bn1): BatchNorm2d(64, eps=1e-05, momentum=0.1, affine=True, track_running_stats=True)\n      (relu): ReLU(inplace=True)\n      (maxpool): MaxPool2d(kernel_size=3, stride=2, padding=1, dilation=1, ceil_mode=False)\n      (layer1): Sequential(\n        (0): BasicBlock(\n          (conv1): Conv2d(64, 64, kernel_size=(3, 3), stride=(1, 1), padding=(1, 1), bias=False)\n          (bn1): BatchNorm2d(64, eps=1e-05, momentum=0.1, affine=True, track_running_stats=True)\n          (relu): ReLU(inplace=True)\n          (conv2): Conv2d(64, 64, kernel_size=(3, 3), stride=(1, 1), padding=(1, 1), bias=False)\n          (bn2): BatchNorm2d(64, eps=1e-05, momentum=0.1, affine=True, track_running_stats=True)\n        )\n        (1): BasicBlock(\n          (conv1): Conv2d(64, 64, kernel_size=(3, 3), stride=(1, 1), padding=(1, 1), bias=False)\n          (bn1): BatchNorm2d(64, eps=1e-05, momentum=0.1, affine=True, track_running_stats=True)\n          (relu): ReLU(inplace=True)\n          (conv2): Conv2d(64, 64, kernel_size=(3, 3), stride=(1, 1), padding=(1, 1), bias=False)\n          (bn2): BatchNorm2d(64, eps=1e-05, momentum=0.1, affine=True, track_running_stats=True)\n        )\n        (2): BasicBlock(\n          (conv1): Conv2d(64, 64, kernel_size=(3, 3), stride=(1, 1), padding=(1, 1), bias=False)\n          (bn1): BatchNorm2d(64, eps=1e-05, momentum=0.1, affine=True, track_running_stats=True)\n          (relu): ReLU(inplace=True)\n          (conv2): Conv2d(64, 64, kernel_size=(3, 3), stride=(1, 1), padding=(1, 1), bias=False)\n          (bn2): BatchNorm2d(64, eps=1e-05, momentum=0.1, affine=True, track_running_stats=True)\n        )\n      )\n      (layer2): Sequential(\n        (0): BasicBlock(\n          (conv1): Conv2d(64, 128, kernel_size=(3, 3), stride=(2, 2), padding=(1, 1), bias=False)\n          (bn1): BatchNorm2d(128, eps=1e-05, momentum=0.1, affine=True, track_running_stats=True)\n          (relu): ReLU(inplace=True)\n          (conv2): Conv2d(128, 128, kernel_size=(3, 3), stride=(1, 1), padding=(1, 1), bias=False)\n          (bn2): BatchNorm2d(128, eps=1e-05, momentum=0.1, affine=True, track_running_stats=True)\n          (downsample): Sequential(\n            (0): Conv2d(64, 128, kernel_size=(1, 1), stride=(2, 2), bias=False)\n            (1): BatchNorm2d(128, eps=1e-05, momentum=0.1, affine=True, track_running_stats=True)\n          )\n        )\n        (1): BasicBlock(\n          (conv1): Conv2d(128, 128, kernel_size=(3, 3), stride=(1, 1), padding=(1, 1), bias=False)\n          (bn1): BatchNorm2d(128, eps=1e-05, momentum=0.1, affine=True, track_running_stats=True)\n          (relu): ReLU(inplace=True)\n          (conv2): Conv2d(128, 128, kernel_size=(3, 3), stride=(1, 1), padding=(1, 1), bias=False)\n          (bn2): BatchNorm2d(128, eps=1e-05, momentum=0.1, affine=True, track_running_stats=True)\n        )\n        (2): BasicBlock(\n          (conv1): Conv2d(128, 128, kernel_size=(3, 3), stride=(1, 1), padding=(1, 1), bias=False)\n          (bn1): BatchNorm2d(128, eps=1e-05, momentum=0.1, affine=True, track_running_stats=True)\n          (relu): ReLU(inplace=True)\n          (conv2): Conv2d(128, 128, kernel_size=(3, 3), stride=(1, 1), padding=(1, 1), bias=False)\n          (bn2): BatchNorm2d(128, eps=1e-05, momentum=0.1, affine=True, track_running_stats=True)\n        )\n        (3): BasicBlock(\n          (conv1): Conv2d(128, 128, kernel_size=(3, 3), stride=(1, 1), padding=(1, 1), bias=False)\n          (bn1): BatchNorm2d(128, eps=1e-05, momentum=0.1, affine=True, track_running_stats=True)\n          (relu): ReLU(inplace=True)\n          (conv2): Conv2d(128, 128, kernel_size=(3, 3), stride=(1, 1), padding=(1, 1), bias=False)\n          (bn2): BatchNorm2d(128, eps=1e-05, momentum=0.1, affine=True, track_running_stats=True)\n        )\n      )\n      (layer3): Sequential(\n        (0): BasicBlock(\n          (conv1): Conv2d(128, 256, kernel_size=(3, 3), stride=(2, 2), padding=(1, 1), bias=False)\n          (bn1): BatchNorm2d(256, eps=1e-05, momentum=0.1, affine=True, track_running_stats=True)\n          (relu): ReLU(inplace=True)\n          (conv2): Conv2d(256, 256, kernel_size=(3, 3), stride=(1, 1), padding=(1, 1), bias=False)\n          (bn2): BatchNorm2d(256, eps=1e-05, momentum=0.1, affine=True, track_running_stats=True)\n          (downsample): Sequential(\n            (0): Conv2d(128, 256, kernel_size=(1, 1), stride=(2, 2), bias=False)\n            (1): BatchNorm2d(256, eps=1e-05, momentum=0.1, affine=True, track_running_stats=True)\n          )\n        )\n        (1): BasicBlock(\n          (conv1): Conv2d(256, 256, kernel_size=(3, 3), stride=(1, 1), padding=(1, 1), bias=False)\n          (bn1): BatchNorm2d(256, eps=1e-05, momentum=0.1, affine=True, track_running_stats=True)\n          (relu): ReLU(inplace=True)\n          (conv2): Conv2d(256, 256, kernel_size=(3, 3), stride=(1, 1), padding=(1, 1), bias=False)\n          (bn2): BatchNorm2d(256, eps=1e-05, momentum=0.1, affine=True, track_running_stats=True)\n        )\n        (2): BasicBlock(\n          (conv1): Conv2d(256, 256, kernel_size=(3, 3), stride=(1, 1), padding=(1, 1), bias=False)\n          (bn1): BatchNorm2d(256, eps=1e-05, momentum=0.1, affine=True, track_running_stats=True)\n          (relu): ReLU(inplace=True)\n          (conv2): Conv2d(256, 256, kernel_size=(3, 3), stride=(1, 1), padding=(1, 1), bias=False)\n          (bn2): BatchNorm2d(256, eps=1e-05, momentum=0.1, affine=True, track_running_stats=True)\n        )\n        (3): BasicBlock(\n          (conv1): Conv2d(256, 256, kernel_size=(3, 3), stride=(1, 1), padding=(1, 1), bias=False)\n          (bn1): BatchNorm2d(256, eps=1e-05, momentum=0.1, affine=True, track_running_stats=True)\n          (relu): ReLU(inplace=True)\n          (conv2): Conv2d(256, 256, kernel_size=(3, 3), stride=(1, 1), padding=(1, 1), bias=False)\n          (bn2): BatchNorm2d(256, eps=1e-05, momentum=0.1, affine=True, track_running_stats=True)\n        )\n        (4): BasicBlock(\n          (conv1): Conv2d(256, 256, kernel_size=(3, 3), stride=(1, 1), padding=(1, 1), bias=False)\n          (bn1): BatchNorm2d(256, eps=1e-05, momentum=0.1, affine=True, track_running_stats=True)\n          (relu): ReLU(inplace=True)\n          (conv2): Conv2d(256, 256, kernel_size=(3, 3), stride=(1, 1), padding=(1, 1), bias=False)\n          (bn2): BatchNorm2d(256, eps=1e-05, momentum=0.1, affine=True, track_running_stats=True)\n        )\n        (5): BasicBlock(\n          (conv1): Conv2d(256, 256, kernel_size=(3, 3), stride=(1, 1), padding=(1, 1), bias=False)\n          (bn1): BatchNorm2d(256, eps=1e-05, momentum=0.1, affine=True, track_running_stats=True)\n          (relu): ReLU(inplace=True)\n          (conv2): Conv2d(256, 256, kernel_size=(3, 3), stride=(1, 1), padding=(1, 1), bias=False)\n          (bn2): BatchNorm2d(256, eps=1e-05, momentum=0.1, affine=True, track_running_stats=True)\n        )\n      )\n      (layer4): Sequential(\n        (0): BasicBlock(\n          (conv1): Conv2d(256, 512, kernel_size=(3, 3), stride=(2, 2), padding=(1, 1), bias=False)\n          (bn1): BatchNorm2d(512, eps=1e-05, momentum=0.1, affine=True, track_running_stats=True)\n          (relu): ReLU(inplace=True)\n          (conv2): Conv2d(512, 512, kernel_size=(3, 3), stride=(1, 1), padding=(1, 1), bias=False)\n          (bn2): BatchNorm2d(512, eps=1e-05, momentum=0.1, affine=True, track_running_stats=True)\n          (downsample): Sequential(\n            (0): Conv2d(256, 512, kernel_size=(1, 1), stride=(2, 2), bias=False)\n            (1): BatchNorm2d(512, eps=1e-05, momentum=0.1, affine=True, track_running_stats=True)\n          )\n        )\n        (1): BasicBlock(\n          (conv1): Conv2d(512, 512, kernel_size=(3, 3), stride=(1, 1), padding=(1, 1), bias=False)\n          (bn1): BatchNorm2d(512, eps=1e-05, momentum=0.1, affine=True, track_running_stats=True)\n          (relu): ReLU(inplace=True)\n          (conv2): Conv2d(512, 512, kernel_size=(3, 3), stride=(1, 1), padding=(1, 1), bias=False)\n          (bn2): BatchNorm2d(512, eps=1e-05, momentum=0.1, affine=True, track_running_stats=True)\n        )\n        (2): BasicBlock(\n          (conv1): Conv2d(512, 512, kernel_size=(3, 3), stride=(1, 1), padding=(1, 1), bias=False)\n          (bn1): BatchNorm2d(512, eps=1e-05, momentum=0.1, affine=True, track_running_stats=True)\n          (relu): ReLU(inplace=True)\n          (conv2): Conv2d(512, 512, kernel_size=(3, 3), stride=(1, 1), padding=(1, 1), bias=False)\n          (bn2): BatchNorm2d(512, eps=1e-05, momentum=0.1, affine=True, track_running_stats=True)\n        )\n      )\n    )\n    (decoder): LinknetDecoder(\n      (blocks): ModuleList(\n        (0): DecoderBlock(\n          (block): Sequential(\n            (0): Conv2dReLU(\n              (0): Conv2d(512, 128, kernel_size=(1, 1), stride=(1, 1), bias=False)\n              (1): BatchNorm2d(128, eps=1e-05, momentum=0.1, affine=True, track_running_stats=True)\n              (2): ReLU(inplace=True)\n            )\n            (1): TransposeX2(\n              (0): ConvTranspose2d(128, 128, kernel_size=(4, 4), stride=(2, 2), padding=(1, 1))\n              (1): BatchNorm2d(128, eps=1e-05, momentum=0.1, affine=True, track_running_stats=True)\n              (2): ReLU(inplace=True)\n            )\n            (2): Conv2dReLU(\n              (0): Conv2d(128, 256, kernel_size=(1, 1), stride=(1, 1), bias=False)\n              (1): BatchNorm2d(256, eps=1e-05, momentum=0.1, affine=True, track_running_stats=True)\n              (2): ReLU(inplace=True)\n            )\n          )\n        )\n        (1): DecoderBlock(\n          (block): Sequential(\n            (0): Conv2dReLU(\n              (0): Conv2d(256, 64, kernel_size=(1, 1), stride=(1, 1), bias=False)\n              (1): BatchNorm2d(64, eps=1e-05, momentum=0.1, affine=True, track_running_stats=True)\n              (2): ReLU(inplace=True)\n            )\n            (1): TransposeX2(\n              (0): ConvTranspose2d(64, 64, kernel_size=(4, 4), stride=(2, 2), padding=(1, 1))\n              (1): BatchNorm2d(64, eps=1e-05, momentum=0.1, affine=True, track_running_stats=True)\n              (2): ReLU(inplace=True)\n            )\n            (2): Conv2dReLU(\n              (0): Conv2d(64, 128, kernel_size=(1, 1), stride=(1, 1), bias=False)\n              (1): BatchNorm2d(128, eps=1e-05, momentum=0.1, affine=True, track_running_stats=True)\n              (2): ReLU(inplace=True)\n            )\n          )\n        )\n        (2): DecoderBlock(\n          (block): Sequential(\n            (0): Conv2dReLU(\n              (0): Conv2d(128, 32, kernel_size=(1, 1), stride=(1, 1), bias=False)\n              (1): BatchNorm2d(32, eps=1e-05, momentum=0.1, affine=True, track_running_stats=True)\n              (2): ReLU(inplace=True)\n            )\n            (1): TransposeX2(\n              (0): ConvTranspose2d(32, 32, kernel_size=(4, 4), stride=(2, 2), padding=(1, 1))\n              (1): BatchNorm2d(32, eps=1e-05, momentum=0.1, affine=True, track_running_stats=True)\n              (2): ReLU(inplace=True)\n            )\n            (2): Conv2dReLU(\n              (0): Conv2d(32, 64, kernel_size=(1, 1), stride=(1, 1), bias=False)\n              (1): BatchNorm2d(64, eps=1e-05, momentum=0.1, affine=True, track_running_stats=True)\n              (2): ReLU(inplace=True)\n            )\n          )\n        )\n        (3): DecoderBlock(\n          (block): Sequential(\n            (0): Conv2dReLU(\n              (0): Conv2d(64, 16, kernel_size=(1, 1), stride=(1, 1), bias=False)\n              (1): BatchNorm2d(16, eps=1e-05, momentum=0.1, affine=True, track_running_stats=True)\n              (2): ReLU(inplace=True)\n            )\n            (1): TransposeX2(\n              (0): ConvTranspose2d(16, 16, kernel_size=(4, 4), stride=(2, 2), padding=(1, 1))\n              (1): BatchNorm2d(16, eps=1e-05, momentum=0.1, affine=True, track_running_stats=True)\n              (2): ReLU(inplace=True)\n            )\n            (2): Conv2dReLU(\n              (0): Conv2d(16, 64, kernel_size=(1, 1), stride=(1, 1), bias=False)\n              (1): BatchNorm2d(64, eps=1e-05, momentum=0.1, affine=True, track_running_stats=True)\n              (2): ReLU(inplace=True)\n            )\n          )\n        )\n        (4): DecoderBlock(\n          (block): Sequential(\n            (0): Conv2dReLU(\n              (0): Conv2d(64, 16, kernel_size=(1, 1), stride=(1, 1), bias=False)\n              (1): BatchNorm2d(16, eps=1e-05, momentum=0.1, affine=True, track_running_stats=True)\n              (2): ReLU(inplace=True)\n            )\n            (1): TransposeX2(\n              (0): ConvTranspose2d(16, 16, kernel_size=(4, 4), stride=(2, 2), padding=(1, 1))\n              (1): BatchNorm2d(16, eps=1e-05, momentum=0.1, affine=True, track_running_stats=True)\n              (2): ReLU(inplace=True)\n            )\n            (2): Conv2dReLU(\n              (0): Conv2d(16, 32, kernel_size=(1, 1), stride=(1, 1), bias=False)\n              (1): BatchNorm2d(32, eps=1e-05, momentum=0.1, affine=True, track_running_stats=True)\n              (2): ReLU(inplace=True)\n            )\n          )\n        )\n      )\n    )\n    (segmentation_head): SegmentationHead(\n      (0): Conv2d(32, 4, kernel_size=(1, 1), stride=(1, 1))\n      (1): Identity()\n      (2): Activation(\n        (activation): Identity()\n      )\n    )\n  )\n)"},"metadata":{}}]},{"cell_type":"code","source":"from tqdm import tqdm\nimport torch\nfrom sklearn.metrics import f1_score\nfrom tqdm import tqdm\n\ndef calculate_f1_score(preds, targets):\n    preds = preds.sigmoid().detach().cpu().numpy().flatten()  \
…
